tests/data/mdn_test.pth (torch, 8143 bytes, 5 tensors)

model.0.weight f4 [4, 331]
00000000: 0454 e63b f281 dfbc 4e3c 5dbd 75d5 3f3d
00000010: 3f8a 003d 4876 1abc 2580 003d c45b 21bc
00000020: b2b0 3cbd 5bf3 57bd e238 47bd 7116 44bd
00000030: 22a8 783c 37f8 4c3d 98f2 fc3c e764 443d
00000040: 962d 8fbc d401 273d 158b 19bc f1c9 543d
00000050: 1a9b f0bc 679f 5f3d 6ff4 b1bc 1e7d 7abb
00000060: 2ada 943b 80ff 413c bcc5 08bd 07f7 58bc
00000070: a48e 54bd 431f 3dbd fcd3 2d3d 46f5 c4bb
00000080: b007 b8bb 73ab aa3c 9d37 d2bc 9e6d 3e3d
00000090: b300 01bd 5708 40bd f4bf 80bc 0ee8 1dbc
000000a0: 49e2 2a3d 8b47 25bc 7deb 143d 6d7c 373d
000000b0: 3d4f a2bc 3397 55bd 234c 543c eafc 29bd
000000c0: 44d6 0a3d 35b4 fdbc 5d1d d7bc d629 ce3b
000000d0: 1fe0 213d 0bcd 393d cc74 203c 3586 db3c
000000e0: a0b3 f8bb baf9 8ebc 085f fe3c eaad 903c
000000f0: 1b6a b03c 9b4d eebc ffc1 363d 868b 1e3d
00000100: 9cc5 13bd 925f fb3c be12 a2bc 0edb a63c
00000110: 275e c1bc d2a0 b4bc f12a 0a3d 7961 473d
00000120: fc49 0cbc d667 d23c c96b 633d a0e5 1cbd
00000130: 0ab4 5fbb 92cc 963c 00b4 dbbc 7cb1 21bc
00000140: 7fbd d63c 2182 57bd b4ee a73c 4efe bc3c
00000150: 2785 223d 9520 25bd 578b 7abc c81c bcbc
00000160: 0d0e 223d ddfb 31bd bc9c 523c b48b aabc
00000170: d9cf 0a3d 509a f13b ccec 1dbd dce6 fb39
00000180: bc66 7b3c fcf6 2dbd a81a ecbc afbc eb3c
00000190: c747 57bd 1e1e fa3c 2010 013d a8f3 55bd
000001a0: 9f17 193d d885 02bd f6b9 3b3c 01a9 47bd
000001b0: 414a d0bc 0bc4 e2bb 2003 3fbd a260 103d
000001c0: a8ab 12bc 3cc8 79bc 8f62 32bd 435d 483d
000001d0: 1993 3bbc 6b3a e8bc dcd4 653c 9930 b5ba
000001e0: 2e7f 0c3c 5243 28bb ae3a 94bb 4529 37bd
000001f0: 147f e73b a7ff b8bc 7a9e 60bc de49 683d
00000200: 0037 7bbb 3b6b fcbb d644 e4bc 1f42 30bd
00000210: 6283 d1bc dfe7 e33c e026 0ebc 8ee4 1b3d
00000220: 9a92 363c 2bbd b8bc de20 653d 0bf0 5bbd
00000230: baaf 38bd 99e0 0dbd 8d46 623d dd37 3cbd
00000240: 96c9 01bd 6d23 91bb 4234 de3c e443 1cbd
00000250: 00e2 b2bb 70c3 3c3d b320 4e3d 5adf be3c
00000260: e185 9cbc 6683 9e3c d3ac 1bbd 6917 403d
00000270: eb85 153d 097b a3bc 9d2e b0bc 5324 513d
00000280: c598 2a3d c066 42bc 3176 b83c ee81 0dbd
00000290: 5af0 1dbd 06d6 90bc 0cb2 ee3b 33cd 3ebd
000002a0: 0d13 373d e44e b6bc fcb8 c6bb 0e03 d73c
000002b0: b8f4 2dbc 175e 5d3d 95b6 913c 44dd a0bc
000002c0: 60bd 57b8 2cd7 30bd da05 f2bc 4c66 4fbc
000002d0: 2df1 1cbd ff89 70bc 8922 1c3d b313 563d
000002e0: ad2b 433d a831 5ebc 257b 4d3d e836 11bd
000002f0: d643 ccbc 7949 b4bc 1da2 563d edd0 57bd
00000300: 1e91 3c3d e2d1 a33c 550a 1c3d 6e27 1fbd
00000310: 3a00 203c faa5 353d 36eb d3bc 3afa fd3c
00000320: 7d0f 653d c22c f83c ac71 32bd c7eb 2f3d
00000330: 8982 2b3d ab25 2d3d f591 563c cce6 643c
00000340: e623 45bd d429 09bd 230f 4a3d d854 f33c
00000350: 39d3 3b3d 3152 d1bc 40d0 39bc 5348 edbc
00000360: 7eb4 b2bb c437 5c3d 2042 5f3c 8a8b 903c
00000370: f0db d33c 9ba2 33bd 1c03 613c ee7c 973b
00000380: 59c3 433c 073c 343c d86f 3f3c af70 343d
00000390: 2c31 193c 1948 063c f1c6 aa3c 5895 ecbc
000003a0: 8e12 9cbc fb1d 553d 3337 ff3c eadf 2abd
000003b0: fa1a c93c cdb9 393b 34bd 30bd 0e72 6fbc
000003c0: 087e e1bb fa69 af3c 5bc2 5a3d 948d 463d
000003d0: 5cd1 233c 8238 b63c a5a4 35bd 24eb 223d
000003e0: 988a 003d 5069 df3b 74b7 f0bc bc9a 0bbd
000003f0: 0217 003d 24fa 54bd 104d fe39 e0fd 18bd
0.0070290584 -0.027283642 -0.05401259 0.046834428 0.03138184 -0.0094276145 0.03137221 -0.009848539
-0.046066947 -0.052722316 -0.048638232 -0.047872964 0.015176805 0.050041404 0.030877396 0.04794779
-0.017477792 0.040773228 -0.009371539 0.0519504 -0.029370833 0.054595377 -0.021723 -0.0038221548
0.0045426087 0.011840701 -0.0333917 -0.01324249 -0.051893845 -0.04617239 0.042438492 -0.006010684
-0.005616151 0.020833706 -0.025661284 0.046491258 -0.031494807 -0.046882953 -0.01571653 -0.009637846
0.04171971 -0.010087858 0.03635739 0.044796396 -0.019813174 -0.052146148 0.0129576055 -0.041500963
0.033895746 -0.030969718 -0.026259119 0.0062916083 0.03952038 0.04536156 0.009793472 0.026797393
-0.0075897723 -0.017453063 0.031051174 0.017661054 0.02153497 -0.02908974 0.044618603 0.03870728
-0.036077127 0.03068522 -0.019784328 0.020368125 -0.023604466 -0.022049341 0.03373236 0.04867694
-0.008562561 0.025684278 0.055522714 -0.038304925 -0.0034134411 0.018408094 -0.02681923 -0.009868976
0.026213406 -0.052614335 0.020499565 0.02307048 0.039677765 -0.040314276 -0.01529201 -0.022962943
0.03956418 -0.043453086 0.012854751 -0.020818569 0.033889625 0.007373132 -0.038555905 0.00048046454
0.015344318 -0.04247187 -0.028821304 0.028776495 -0.052558687 0.03053194 0.03150952 -0.05223432
0.037376042 -0.031865925 0.011457911 -0.04874516 -0.025426032 -0.006920343 -0.04663384 0.035248406
-0.008952059 -0.0152454935 -0.043551024 0.048917066 -0.011448645 -0.028348168 0.0140278 -0.0013823687
0.008575244 -0.0025674892 -0.0045235967 -0.044717092 0.0070647094 -0.022582842 -0.013709659 0.05671107
-0.0038332343 -0.0077032126 -0.027864855 -0.043031808 -0.025575344 0.027820526 -0.008676261 0.038059764
0.011143351 -0.02255114 0.055939548 -0.05369572 -0.04508946 -0.03463802 0.055243064 -0.045951713
-0.031686388 -0.004429272 0.027124528 -0.038150683 -0.00545907 0.04608482 0.050324153 0.023299862
-0.019106807 0.019349765 -0.038006615 0.046897326 0.036504667 -0.019956129 -0.021506602 0.051060032
0.0416496 -0.011865318 0.022517296 -0.03454774 -0.038559295 -0.01768018 0.0072844084 -0.046582412
0.044695903 -0.022254415 -0.0060645323 0.026246574 -0.0106174275 0.05404481 0.017787257 -0.019636758
-5.1436364e-05 -0.043173954 -0.029543806 -0.012658667 -0.03831594 -0.014681338 0.038118873 0.05226488
0.047649074 -0.013561644 0.050166268 -0.035452753 -0.02493469 -0.02200769 0.052400697 -0.05268948
0.046036832 0.01999754 0.03809579 -0.038855962 0.009765679 0.04434774 -0.025868993 0.031003106
0.055922974 0.03029478 -0.043565437 0.042949464 0.041872535 0.04227225 0.013096322 0.013971042
-0.04812994 -0.033487156 0.04933084 0.029703543 0.045855734 -0.025551887 -0.011341155 -0.028965151
-0.0054536453 0.05376412 0.013626605 0.017644662 0.02586171 -0.043856245 0.0137336515 0.004623047
0.01194843 0.01100064 0.0116843805 0.044052776 0.009350102 0.0081959 0.020846816 -0.028879806
-0.019051816 0.052030545 0.03115425 -0.041717447 0.024548996 0.0028339506 -0.04314919 -0.014614595
-0.006881479 0.021412838 0.053408008 0.048474863 0.009998646 0.022243742 -0.04434647 0.03977503
0.031382173 0.006817974 -0.029384352 -0.034083113 0.031271942 -0.051996365 0.0004850407 -0.03735149

model.0.bias f4 [4]
00000000: 4593 003d 4a41 11bd d4da 64bc 40e4 293d
0.031390447 -0.035462655 -0.013968188 0.04147744

model.2.log_pi.weight f4 [1, 4]
00000000: 0a86 d83e cc26 3ebe 7a79 d7be b8e7 033e
0.42289764 -0.18569487 -0.42084867 0.12881362

model.2.log_sigma.weight f4 [1, 4]
00000000: d4ef 9cbc 5072 953e c3fc b1be 1244 cbbe
-0.019157328 0.29188776 -0.34763154 -0.3970037

model.2.mu.weight f4 [1, 4]
00000000: 2ddc 1bbe 4196 863e 724d a43e 5c19 1d3e
-0.15220709 0.2628651 0.32090336 0.15341705
